…
tadata":{"colab":{"base_uri":"https://localhost:8080/"},"id":"Tw0jpLNX46jF","executionInfo":{"status":"ok","timestamp":1697550427228,"user_tz":240,"elapsed":13497,"user":{"displayName":"João Dick","userId":"09906120919510529946"}},"outputId":"35227c5c-3df9-4a5c-f320-8b27b2b3ada1"},"execution_count":18,"outputs":[{"output_type":"stream","name":"stdout","text":["----------------------------------------------------------------\n","        Layer (type)               Output Shape         Param #\n","================================================================\n","            Conv2d-1           [32, 64, 32, 32]           1,792\n","       BatchNorm2d-2           [32, 64, 32, 32]             128\n","              ReLU-3           [32, 64, 32, 32]               0\n","            Conv2d-4          [32, 128, 32, 32]          73,856\n","       BatchNorm2d-5          [32, 128, 32, 32]             256\n","              ReLU-6          [32, 128, 32, 32]               0\n","         MaxPool2d-7          [32, 128, 16, 16]               0\n","            Conv2d-8          [32, 128, 16, 16]         147,584\n","       BatchNorm2d-9          [32, 128, 16, 16]             256\n","             ReLU-10          [32, 128, 16, 16]               0\n","           Conv2d-11          [32, 128, 16, 16]         147,584\n","      BatchNorm2d-12          [32, 128, 16, 16]             256\n","             ReLU-13          [32, 128, 16, 16]               0\n","           Conv2d-14          [32, 256, 16, 16]         295,168\n","      BatchNorm2d-15          [32, 256, 16, 16]             512\n","             ReLU-16          [32, 256, 16, 16]               0\n","        MaxPool2d-17            [32, 256, 8, 8]               0\n","           Conv2d-18            [32, 512, 8, 8]       1,180,160\n","      BatchNorm2d-19            [32, 512, 8, 8]           1,024\n","             ReLU-20            [32, 512, 8, 8]               0\n","        MaxPool2d-21            [32, 512, 4, 4]               0\n","           Conv2d-22            [32, 512, 4, 4]       2,359,808\n","      BatchNorm2d-23            [32, 512, 4, 4]           1,024\n","             ReLU-24            [32, 512, 4, 4]               0\n","           Conv2d-25            [32, 512, 4, 4]       2,359,808\n","      BatchNorm2d-26            [32, 512, 4, 4]           1,024\n","             ReLU-27            [32, 512, 4, 4]               0\n","        MaxPool2d-28            [32, 512, 1, 1]               0\n","          Flatten-29                  [32, 512]               0\n","           Linear-30                   [32, 10]           5,130\n","================================================================\n","Total params: 6,575,370\n","Trainable params: 6,575,370\n","Non-trainable params: 0\n","----------------------------------------------------------------\n","Input size (MB): 0.38\n","Forward/backward pass size (MB): 290.25\n","Params size (MB): 25.08\n","Estimated Total Size (MB): 315.71\n","---------------------------------
…
